layer1.b.npy (npy, 880 bytes, 1 tensors)

array f8 [100, 1]
0	0xbf9bc096c45964fc	-0.027101855978206565
1	0xbf97062fea95e411	-0.022484539692843756
2	0xbfbb5a60573f2e78	-0.10684778337525269
3	0xbf963c3b7e40a9a9	-0.021714143353315816
4	0xbfedb081177051de	-0.9277959306514807
5	0xbf92acf42d2a4336	-0.01823789144197293
6	0x3fd8a8ed722ed900	0.38531051779445136
7	0xbf97c3dd5b65cfd0	-0.023208101943467174
8	0xbf9a2d858f9389c3	-0.025564276588633705
9	0x3fda9e27ffde69e0	0.41590309130847736
10	0x3fd364207fb480f9	0.3029862639541672
11	0xbf93a5798d9e5cf1	-0.01918592383262036
12	0xbf98400f586e87ca	-0.023681869289823777
13	0xbf97cecb4fcbf976	-0.023249794717224735
14	0x3ff5cbafe916daa3	1.3622283082055808
15	0x3fd2663e65e13468	0.2874904627722743
16	0xbf9773d57effc64e	-0.022902809025202857
17	0xbf9742d67b5bd221	-0.022715903548446662
18	0xbf83bb678bdfe583	-0.009634789425023943
19	0xbf911ab6d8ed9ce0	-0.01670346926712518
20	0xbf97591d3ecbeca6	-0.022800881345557265
21	0x3fc3b53e29cb8de7	0.15396859207895305
22	0x3fbd77d132fd59eb	0.11510951514114935
23	0xbf93bc6741725230	-0.019273389215032022
24	0x3fc91b5bcc349ee1	0.19614741774534308
25	0xbf942519921070fb	-0.01967277482991479
26	0xbf983bceecceefb1	-0.02366565056193765
27	0xbf9a36cf8d759dc5	-0.025599711426733913
28	0xbfb631751b28b20c	-0.08669216073094094
29	0x3fc7d2f95917a9bd	0.18612591600624553
30	0xbf9636a2c765dea5	-0.021692794246944164
31	0xbf933c7bf294177d	-0.01878541629869045
32	0x3f9a54f4a74b3877	0.025714705191426348
33	0xbf8ee2a2388a2339	-0.015080706930591258
34	0xbf967f71391c8f0c	-0.021970528708279466
35	0xbf9745959241bda7	-0.022726380397612236
36	0xbf9b0187186cb799	-0.02637301527573008
37	0xbf9235bdd641fd70	-0.017783132745987584
38	0x3fd50ac69c4e53b1	0.3287827040124354
39	0xbf9888f1917a6680	-0.023959898475914176
40	0xbf93a701d4a39a32	-0.019191769221743545
41	0xbf97279c36b3368a	-0.022612038458467633
42	0xbf963e21abc94944	-0.021721387968065345
43	0xbf9106e463113286	-0.016627853914814604
44	0x3fd33122cfd88544	0.29987402245940964
45	0xbf9c1fd787011b55	-0.027465217223176925
46	0xbf93b2efae4aacf5	-0.019237275135918847
47	0xbf94410399eb0683	-0.019779258984959924
48	0x3fbb4d1e6768b3e2	0.10664548897393858
49	0xbf9709deeedf6a7a	-0.022498591737397856
50	0xbf97aea130b7a8c9	-0.023127096746897977
51	0xbf92972fbccbe2b3	-0.018154855631083943
52	0xbf966a3d1a092945	-0.021889643396471276
53	0xbf96ded5939b34df	-0.022334420332119072
54	0xbf95083a8d2d5fac	-0.02053920256307122
55	0xbf92d633342210cf	-0.018395233208608638
56	0xbf948e508c4dc919	-0.02007413727137317
57	0xbf9096932f5c24a2	-0.016199397817250223
58	0x3f820a7a61b57ba8	0.008809047800864736
59	0xbf8bd15ba6ba19b6	-0.013582912469485158
60	0xbf95cb8e73c34089	-0.021284318748087592
61	0xbf806dc6b4ae6b2c	-0.00802188147445334
62	0xbf9a714c32584083	-0.025822821209715584
63	0xbf9573fb236e84d7	-0.020950244939403753
64	0x3fadb21d8c3eb544	0.05799953782057313
65	0xbf97d29531557cce	-0.02326424707041213
66	0xc00f3179bdb1e71c	-3.899157983771955
67	0xbf94dc1766773148	-0.02037083208942761
68	0xbf942003472e09f8	-0.01965336915919555
69	0xbf99f8c7b18feaac	-0.025363083088431423
70	0xbf972d03c6fee68a	-0.02263265516351124
71	0xbf96f3bd7855bc94	-0.022414169759426075
72	0xbf93cce87a39aef6	-0.0193363499260348
73	0x3fa09ba540ae3292	0.03243748106533419
74	0x3fc25b71c2c3a62a	0.14341566095326758
75	0xbf96c10a78511aa1	-0.022220767587237792
76	0xbf92e925e94298f9	-0.01846751438338232
77	0xbf977eb750872461	-0.022944320955307854
78	0xbfac66284d007963	-0.055466899299278415
79	0xbf9937a6b42066e4	-0.02462635492711386
80	0xbf95d6991620f2e4	-0.021326438880566637
81	0x3fd3508be07f9685	0.30179116176291415
82	0xbf9530dcc33f2399	-0.020694207589062683
83	0xbf957b97165b6547	-0.020979271640361643
84	0xbf8f2589176a165b	-0.015208312060404674
85	0x3fc0b8dd104775be	0.13064158720855618
86	0xbf965f5df6a18fc5	-0.021848171404044842
87	0xbf91f4729abd7509	-0.017534056372245952
88	0xbf9523e88947d8ca	-0.02064479196447947
89	0xbf90c8c7e638ea4f	-0.01639091818490562
90	0xbf997ceedaf383e0	-0.024890644181940647
91	0xbf9728060d047404	-0.022613615555304292
92	0xbf9addc5d80eb6ff	-0.026236621200658835
93	0xbf95545928c16e54	-0.0208295756459463
94	0xbf97e16edb519129	-0.023320896278520884
95	0xbf44aedcebcff433	-0.0006311968533051548
96	0xbf942c62d6d0fb8c	-0.019700569497441076
97	0xbf9bec2d7afbf777	-0.02726813376556644
98	0xbfdb9289f0278549	-0.4308190198190301
99	0xbf8a119ce4183be6	-0.012728906355759361
