layer2.b.npy (npy, 880 bytes, 1 tensors)

array f8 [100, 1]
0.9494031595741208 0.48147757273336794 0.06297888424874705 -0.023838125158953536 0.2820456407777331 0.17741556914362644 -0.018057421174169815 -0.0022848880017788055
0.20443737393900485 -0.011728078337263467 0.005218947295235919 -0.028048893531291193 0.23838687270967712 -0.0007145965947594988 -0.004407194547505651 -0.014500691673817743
-0.009583744089551222 -0.011523580337818348 0.06500679647786686 0.6998258820750624 -0.027316265552700513 -0.016148011880139958 -0.014523801322681242 0.6107526128540732
0.7446250822991175 0.04396921247371465 0.19683385968427827 0.023354581867412166 0.04697773596245458 0.40926797416970817 0.025810552694808142 0.20283795030249044
-0.00679597059381838 -0.012789408262124964 -0.0032814062859816374 0.051897919247598255 -0.014552773743431726 0.2862181355243595 0.42987090175803416 -0.004139136068105904
-0.009265431850470058 0.19070063167080467 -0.022116182921908905 0.04371733955042888 0.07093152046294086 0.07351417333642035 0.2946151048349581 -0.51369007419322
0.8876869703075786 0.509626125247069 0.0016195777687814045 0.16182300695391347 -0.005618392603059173 0.0699493690297488 0.26060036895119887 0.5256658367416811
0.08238465878279383 -0.019090579380062023 0.13842377822665677 0.5223547607138562 0.3510308102027148 -0.0043207798352046245 -0.03951893205712852 0.10120097001578601
0.822920499229517 0.20397544141305562 0.09469441893289403 0.5614227997618572 -0.00497180283866183 0.2792091882079809 0.03056516006070297 -0.0018188129006603579
-0.007766483359849562 0.4751842843354673 -1.3168329152687965 0.24698811988522587 0.85206449891816 0.7101704585194177 0.09775930767675237 -0.0025390232749802166
1.8039943745910485 -0.0004758994821583633 0.2617220894139196 0.00041741306485991485 0.017668588012420647 -0.0036428923216662544 -0.02608117579159615 0.04389294103342087
0.0004662525099924419 0.013122524460758093 1.26961904079428 -0.006525800032962948 0.07903456509791651 0.4334688204302516 -0.006480051570415245 -0.0030464335744059406
0.8974347029447988 0.33253629264587437 0.430654050848861 0.01650471098390937
00000000: 9ce0 22bc 8261 ee3f fb6c 294f 87d0 de3f
00000010: 2ddb 2f58 621f b03f 9998 d27f 0569 98bf
00000020: 9ea9 c728 090d d23f 04f5 a2a9 8db5 c63f
00000030: d297 9205 a57d 92bf b1e4 c3e7 c1b7 62bf
00000040: 88f6 92fd 002b ca3f de4f 3a07 e404 88bf
00000050: beca 3d7f 7660 753f 6f9f 9f61 d9b8 9cbf
00000060: 3eb9 0a07 7683 ce3f d5b8 8d80 786a 47bf
00000070: bba7 2d47 470d 72bf 0542 11e4 89b2 8dbf
00000080: 8aba 805b a4a0 83bf 5856 78c5 ac99 87bf
00000090: eee1 e310 49a4 b03f 0f04 8d3f f964 e63f
000000a0: e371 ca8c cbf8 9bbf 2ab7 aebb 1a89 90bf
000000b0: 2e5f 8e9d a7be 8dbf 12f4 4410 498b e33f
000000c0: 4d31 08fb f7d3 e73f 6f01 36f3 2183 a63f
000000d0: 6172 0b17 da31 c93f cb43 5475 43ea 973f
000000e0: 809e 323f 770d a83f fefa 164d 7231 da3f
000000f0: 2011 ddde 146e 9a3f 59eb 770d 98f6 c93f
00000100: 4ed5 1e77 17d6 7bbf 91a5 c451 5531 8abf
00000110: 369c dc95 9be1 6abf 733a cc33 5d92 aa3f
00000120: 215f 5a3a d8cd 8dbf 9e59 e6de 6551 d23f
00000130: d760 233e 0183 db3f 8745 bde0 32f4 70bf
00000140: d7a9 3f36 c1f9 82bf 9123 2dd8 e068 c83f
00000150: aba3 72e9 9fa5 96bf 9e41 467f 1e62 a63f
00000160: b3d5 a470 9128 b23f 0cbc 452a d3d1 b23f
00000170: d41e 0b50 f9da d23f f811 9e2a 2670 e0bf
00000180: cfcd 5181 ee67 ec3f 93f2 a372 db4e e03f
00000190: e435 3763 0089 5a3f 8fc0 4dc5 9db6 c43f
000001a0: 7196 c7c7 4f03 77bf a0cd 5bac 33e8 b13f
000001b0: c423 7e2b adad d03f 86c2 2d29 41d2 e03f
000001c0: 3c0a 2a37 2917 b53f 8d6f 6518 7b8c 93bf
000001d0: 9d72 3cd0 deb7 c13f 1fa1 c554 21b7 e03f
000001e0: f760 6dee 4977 d63f 80e1 5d81 aab2 71bf
000001f0: 7e34 8451 d33b a4bf 2a91 8a88 4ee8 b93f
00000200: b7c2 ec5e 5d55 ea3f ce32 0705 de1b ca3f
00000210: 7335 6eb8 e43d b83f 0197 86f2 2cf7 e13f
00000220: fee4 8129 505d 74bf a624 0637 90de d13f
00000230: 5e4f 6e2b 794c 9f3f 8e9a 417b a7cc 5dbf
00000240: a555 9180 bfcf 7fbf d9d0 3258 6b69 de3f
00000250: 5c03 1664 bf11 f5bf 552b b484 4e9d cf3f
00000260: bcf4 9dc4 1c44 eb3f a0a3 bd65 b7b9 e63f
00000270: baeb 5905 c106 b93f d71b c1bd b7cc 64bf
00000280: 9d95 9034 29dd fc3f 7923 49b6 4430 3fbf
00000290: d01b ab01 0ec0 d03f 072b 6676 075b 3b3f
000002a0: 1c29 b8de b617 923f f80d 4dec b2d7 6dbf
000002b0: 35b8 4314 06b5 9abf ac10 87b4 2279 a63f
000002c0: 5168 3748 6b8e 3e3f 2f07 336b fbdf 8a3f
000002d0: f671 290e 5c50 f43f 4e8a 8c1b ccba 7abf
000002e0: e060 59f8 9b3b b43f 265a e501 f4bd db3f
000002f0: b227 2499 d38a 7abf 20cf 4992 d5f4 68bf
00000300: 3730 6efb c8b7 ec3f 586a 694d 4648 d53f
00000310: 344a 1202 d68f db3f fe8f 9f67 9ce6 903f
