layer3.b.npy (npy, 880 bytes, 1 tensors)

array f8 [100, 1]
000000 fb be dd 36 14 72 31 bf 0f ce b3 5e f2 c0 83 bf
       -0.0002661990500802816 -0.00964536048420597
000010 0d a4 d5 e0 b8 a5 6d bf f3 11 2b 9b c8 6e 88 bf
       -0.003619061556197517 -0.011930052981718986
000020 85 57 ad d6 7b 6a b3 3f a3 14 d7 50 a2 b4 75 bf
       0.07584356299534363 -0.005299219175360611
000030 67 35 23 8d 12 46 ba 3f 92 60 44 18 4c f3 76 3f
       0.10263172097912375 0.005603120084082163
000040 1e 66 0a 1f a9 ee 69 3f 2e 85 aa b9 09 31 c8 3f
       0.003165560069032804 0.1889965206692436
000050 78 03 95 10 50 08 a3 3f 4e c4 82 2f 1b ff 6d 3f
       0.03717279627244968 0.0036616831749474504
000060 7b a5 62 25 d0 a0 53 bf f2 d6 da 79 67 b7 e2 3f
       -0.0011980087925088357 0.5848882083871259
000070 ef e5 3a ea 76 46 c4 3f 1b f6 10 44 09 73 b1 3f
       0.15840040623679338 0.0681615630319005
000080 a4 83 b3 17 89 dc 77 bf 46 05 5b e6 45 bf d0 3f
       -0.005825553434278517 0.2616743802610312
000090 ab b6 01 da 71 07 e0 3f b9 c8 fb 7e 1b 0d 75 3f
       0.5009087808554872 0.005139453321804926
0000a0 da 09 a6 5a fc 33 77 bf e6 ea 7c 80 29 2a 89 bf
       -0.005664811857402497 -0.012287449105874381
0000b0 15 38 16 29 61 0d d3 3f 89 0c 57 55 e4 75 61 3f
       0.2976916218984809 0.002131410564034268
0000c0 c0 fa c9 72 76 fc 80 bf 6a 99 7e 6a 9c 52 36 3f
       -0.008294034364778269 0.0003406173586832014
0000d0 5f b2 c9 e2 40 6b d5 3f ba 8a 45 e0 97 b6 7e bf
       0.3346712317204829 -0.007498353258003016
0000e0 9e f8 c2 a1 fe 13 d1 3f 6a e3 0b b6 92 d9 b2 3f
       0.26684537694007726 0.07363240189068923
0000f0 5c 76 25 17 02 57 b9 3f d6 a2 0f 76 b6 55 cc 3f
       0.09898388924690366 0.221365745207797
000100 2e a3 ba 6e c9 c3 70 3f 56 9b 22 ba 13 81 7c 3f
       0.004092966886368994 0.006959034975955477
000110 ed 0e 90 78 1a 94 bf 3f bc c4 45 ce 3e 77 d8 3f
       0.12335362857271166 0.38227815765192097
000120 c0 3a 1f ae 4a 5e 53 bf 06 8e 68 9e ad 6d b8 3f
       -0.0011821488665081786 0.09542355649369236
000130 b2 34 b7 e1 03 e7 bb 3f 3a 50 95 8b ba 72 ce 3f
       0.10899376164089139 0.23787624183262485
000140 73 50 47 a3 d0 45 41 bf 96 0e f0 50 f3 40 54 bf
       -0.000527121423653755 -0.001236188519897851
000150 ea b8 55 73 ac 10 c8 3f 81 26 e8 a0 55 ab 61 bf
       0.18800883895477877 -0.0021568939621417487
000160 b5 31 bd 8c 1a 1f 6c 3f 68 d8 9a 0a ac b7 c3 3f
       0.0034328001546894645 0.15404272573295263
000170 9f 75 d3 d4 17 0d d7 3f 11 28 d1 34 3d 26 81 bf
       0.3601741388682402 -0.008373716520640813
000180 be ac c4 8d 61 4f 70 bf 01 73 08 69 7a 8a 89 3f
       -0.003981953687154758 0.012471157389023714
000190 e1 66 83 24 a0 fc a3 3f cd d1 eb 68 97 03 80 bf
       0.03903675504416327 -0.007819350137176518
0001a0 55 d8 43 b4 53 47 de 3f 26 18 d4 d8 04 58 8a 3f
       0.4731034527206977 0.0128631952925496
0001b0 07 d0 d0 ce 4b 74 de 3f 9b e0 86 32 81 08 d4 3f
       0.4758481521305388 0.31301908430351383
0001c0 20 b3 8d e9 2e dd c4 3f 7b 04 c3 df 94 37 a5 3f
       0.16299997714977454 0.04143967849223259
0001d0 95 34 12 1d e8 a1 77 3f c5 ed b1 5e 85 24 b3 3f
       0.005769640630331048 0.07477601587191092
0001e0 ec 65 dd 9a c6 0c 8f 3f 1f a6 17 a5 f7 f9 72 bf
       0.015161086655711885 -0.004632918703899174
0001f0 4b a6 79 98 ae 53 2b 3f 04 67 39 9f 00 36 80 bf
       0.000208487570705617 -0.007915501460206815
000200 cc e0 3a 79 c3 1b 6d 3f d7 fc db 00 89 3f f9 be
       0.0035532777636398723 -2.407854486019271e-05
000210 d3 59 1e 69 bf 28 d5 3f 2a 7a cb 5d 77 dd 67 bf
       0.3306120420978946 -0.002913220536682877
000220 77 4d 0d 2d a1 34 db 3f 12 d6 a6 de df 06 d3 3f
       0.4250872554741458 0.2972945856411978
000230 3a e4 3d 95 2b cc 61 3f a3 52 d9 b6 21 4c 71 3f
       0.0021725512723916015 0.004222995468428667
000240 1c eb 85 39 10 c6 8b bf 44 9f f6 6a 7b a3 98 3f
       -0.01356136966272952 0.024061134723211156
000250 7b a9 af 3a 34 39 b9 3f fe ed 61 60 3c bd 81 3f
       0.09852911408203184 0.008661719981538415
000260 b2 07 20 bd 2c d1 2a bf a1 1e 35 2c 72 65 7e 3f
       -0.00020459815146983484 0.007420965182354828
000270 e8 cc b8 4f 50 40 b8 3f 29 79 43 9b 95 81 da 3f
       0.09473134943327788 0.41415920412500157
000280 c2 92 63 f5 d2 2c c0 3f 33 2e b5 6f f4 8d ce 3f
       0.12636792165644378 0.23870711760024363
000290 6f 7d 8e 09 a5 c1 3a bf 20 51 fc 38 22 99 52 bf
       -0.0004082706378145317 -0.001135142727382528
0002a0 fb fa 22 a6 02 d6 ab 3f 01 e8 79 45 db d5 72 bf
       0.05436714437518294 -0.004598480728981614
0002b0 ea 56 a3 a8 99 56 d0 3f ff 4b 44 8e 02 50 6e bf
       0.25528565853652074 -0.003700261108073643
0002c0 38 38 46 c5 48 8e 4a 3f 79 21 db 79 31 8d 5b bf
       0.0008104186368187499 -0.0016816123165189474
0002d0 c3 04 2b c9 e5 52 c0 3f 90 48 ef 05 33 34 c0 3f
       0.12752983400972626 0.12659299649982758
0002e0 c0 55 c6 f8 0f d9 4b bf bf 61 4e 46 2d 7b 81 bf
       -0.0008498504626454559 -0.008535722454141912
0002f0 68 e4 3d d7 2a f3 85 bf a4 b8 32 48 18 a7 da 3f
       -0.010717711156518386 0.41644866037939665
000300 42 1e fa 3a fe 97 c4 3f 26 72 c9 27 16 32 83 bf
       0.1608884609197379 -0.009372876252364892
000310 99 41 4c d3 86 87 83 bf 04 08 d4 9e bb 1d 93 3f
       -0.009535840342807233 0.018668109482867137
