layer2.w.npy (npy, 80080 bytes, 1 tensors)

array f8 [100, 100]
00000000: bcb4 f77d 26ff a2bf 10f8 55c8 7f90 91bf
00000010: c427 9543 5f78 9abf 4dbe 2146 b541 73bf
00000020: 1bff 956c b21f 83bf eeec 9583 b78b 95bf
00000030: 9ad4 a860 3ff9 c83f 7588 cd1c a628 91bf
00000040: 7aa8 bf94 c675 623f af32 9d19 d4c2 c63f
00000050: 73ee a907 c48b c43f 39c2 4f2c 639e 5dbf
00000060: 3e44 d87e c815 a0bf 04e4 e252 7d80 733f
00000070: 50f1 8832 12ae c73f a8af e405 7b88 c13f
00000080: dceb 927e b251 4f3f 83ad f546 0226 76bf
00000090: be4e e035 a6b3 92bf bc95 5821 7208 84bf
000000a0: ff81 d5c0 ab23 90bf a2fc 5dda c099 c03f
000000b0: 5b7f bc4d ff01 be3f 0f67 80ff 6220 95bf
000000c0: 61b2 53bd 7981 c23f 85fd e2c6 baec 743f
000000d0: fca0 1576 46da 28bf 4cc1 4e5e de73 8fbf
000000e0: 4062 8e04 6a52 913f 96f6 879e 017a c33f
000000f0: 7e64 57c6 2efe 74bf c696 b314 1c91 99bf
00000100: 20cd d845 4aec a13f c36f 72a6 f1f7 773f
00000110: c2f5 80df 19ac a8bf 7094 56ca d26c 87bf
00000120: c394 209f 095f 8dbf ac71 5570 bc1e 94bf
00000130: 194d 7720 ab49 c33f 8933 53aa 3903 66bf
00000140: febc 6223 677d 923f 0dff 8389 22ef 733f
00000150: 9bce 24cb c546 8fbf d060 80f4 c176 713f
00000160: c90c f15b 7184 c23f 2683 d015 aba4 91bf
00000170: e91b bf59 e86f a1bf 6db6 2a0f 6c15 81bf
00000180: 982b fd5a eccd c13f 9b01 76de 985e 7bbf
00000190: a3d8 8709 cbca 823f aa74 ab7e 285b 84bf
000001a0: 5046 8e72 5f93 84bf 8543 253a 3c42 aabf
000001b0: ff0a 91b6 b6bb 9abf 9b02 356c 7369 9abf
000001c0: caea b27b b984 87bf fb2c 2559 b30d 92bf
000001d0: 64cb 83c0 041b 31bf 838a 3269 50ae 7abf
000001e0: 71f3 a17e 07d1 7ebf 6737 b56d eef2 69bf
000001f0: 68a5 a96d f686 87bf b7df 9d6b a9e8 6bbf
00000200: 534d fdc0 4bb5 873f 59fc 1d5d 8492 90bf
00000210: 610e 0567 e19c d0bf 2cb3 07e1 839b 9ebf
00000220: c26f 3b9a 4954 71bf b40c 3ea3 347d 9dbf
00000230: 0e80 c12d ee12 83bf 0892 8f07 574f 9ebf
00000240: c620 6225 9c55 8cbf 4ff5 c4cb 36bf ab3f
00000250: f3f5 2970 3a64 b53f 528c a6bf e703 95bf
00000260: 68b5 95f8 ccc5 7bbf 9a77 a6b1 84a7 85bf
00000270: 9f51 709b 6d30 c0bf c5c6 e904 0349 a8bf
00000280: 9618 c7cd 6530 94bf 87c4 053d 9040 c43f
00000290: 5e0d 8aea 4805 583f 51dd ff10 4c36 95bf
000002a0: 8b9f a2b2 1b12 793f bba7 6743 2101 a93f
000002b0: a3e5 609e d8b5 85bf 68f0 a613 fd9a a6bf
000002c0: eea1 cfbb df46 7ebf eeb4 414a 1264 90bf
000002d0: dc97 03d3 bad0 a1bf 5dbd 8c0a ab88 823f
000002e0: 34a9 59dc 1dbc 97bf 16de 613e 7d55 a0bf
000002f0: 18ad 4b2b 899b 6f3f 6e06 8b2a e65b 9b3f
00000300: 258b ab1b f434 94bf 8d2c 364e d376 8abf
00000310: 9836 cd47 42d4 a1bf 180a 0c1a 2da6 73bf
00000320: 5e16 fa95 2eb8 8bbf 6c37 107a 8652 6e3f
00000330: e10d d77a 8f87 913f d43c 7a78 054d 4fbf
00000340: e588 b5bc f5ac 893f 7772 fb56 8862 95bf
00000350: a42a f498 58da b83f be1e 6cf3 636f 95bf
00000360: 0c50 0909 509b 523f 77b9 12e9 96c7 ba3f
00000370: 7e37 1da4 202b b43f 6a9f e614 fd06 80bf
00000380: d576 30b2 6afd 3b3f 4b05 de70 46eb 7b3f
00000390: 6d28 3d39 afe8 af3f aead 8b97 3f84 b13f
000003a0: 6301 1be1 7938 683f 1dbe 9d38 fffd 8cbf
000003b0: d753 f4c7 d24b 70bf 7e91 273a 0673 70bf
000003c0: 924a d7d6 a82a 7b3f 2d4e f5a0 ed0e b23f
000003d0: b410 9ae2 73cd ae3f 4238 70f7 4d9e 9cbf
000003e0: d4f9 310e ef2a b43f df5f a8d2 3a93 813f
000003f0: b18e c379 0e2f 8cbf 1e13 64db 7fd1 66bf
00000400: 1e2b 10d2 f725 8b3f 7794 14b1 35f7 ab3f
00000410: c933 4a00 7997 5c3f 663c 7220 755b 68bf
00000420: 9e41 4ca1 2723 933f aafd 14c8 dd4c 753f
00000430: d9f0 3f7e 21a6 9ebf 253d 0861 8271 833f
00000440: 8bda e475 b796 91bf a73b 220f c205 68bf
00000450: 3667 1807 12a6 b43f bea1 9baa 4a1f 80bf
00000460: 2645 3b4e 8323 74bf 4d3c 10b7 c81a 7e3f
00000470: ca7b 7e0e a335 75bf 687d 790a 8fae 833f
00000480: 1fb0 737a 75b4 b13f 10bb 9067 2436 7a3f
00000490: 10c3 5203 e792 4c3f 5960 9666 18e6 7bbf
000004a0: a321 e466 b10d b13f 3169 5fb9 7079 91bf
000004b0: c2c4 8915 078e 473f 14e1 6876 ba59 55bf
000004c0: 5eda 9c77 1d79 82bf 7dc6 ddf1 853c 90bf
000004d0: 2c08 ced2 e180 61bf e1de d903 18d5 83bf
000004e0: 5c03 be67 81ef 493f c973 3c30 bd60 6abf
000004f0: 0586 8f09 88c7 763f 4e9d 45be 05bf 79bf
00000500: 0f19 3430 7e65 403f fe65 e1cf 34a5 1abf
00000510: 6699 7281 93a8 72bf 72ce 9683 d67f 8e3f
00000520: 0701 1e99 1448 813f 00a4 fac0 a76b 7ebf
00000530: da67 e619 68ba c1bf 6617 a51d 598a 86bf
00000540: 7346 6026 7bd6 49bf 83b8 cd4e 44bf 69bf
00000550: 1bbd 6237 b572 6f3f 70eb 1d16 f25e 6bbf
00000560: 7ff0 0db8 01d5 903f 0a3a 0a86 0029 7f3f
00000570: 3ff6 3c9d f8e5 a83f 5a18 fa4c 0a71 6b3f
00000580: ea9b 6855 5dd5 823f 6d63 3270 541f 6d3f
00000590: 45ef 0dd6 7a1c b1bf b121 d5a0 15f3 9abf
000005a0: d8c3 a823 ef2c 523f 6dad a7bc 1a1f b33f
000005b0: 123f c66f 9f76 6f3f 6fdb 092a 58be 463f
000005c0: 933e 35cb 5657 52bf a924 7959 d324 6f3f
000005d0: de43 73d1 bb6b 88bf 8009 ef4f b52e 96bf
000005e0: 3265 3d6a abe4 663f e06f 2507 2dde 883f
000005f0: cb99 f5e2 4cbf 7d3f 4b0b 786c 08c2 74bf
00000600: 56da 0a46 d4da 8dbf 0154 fc14 3fd7 80bf
00000610: e5ef d7fc 405b 7cbf 2d19 bb43 f5db 933f
00000620: 03af 0c8c b6d5 78bf f0e1 23b0 b517 7dbf
00000630: 6acd 778b a09d a1bf 1955 e130 bcca 82bf
00000640: 5e55 b83d b9fe 8dbf 0ab5 ab20 f4b1 713f
00000650: 000b bafc 8b0b 38bf c6c1 48cd 59a8 543f
00000660: 4a45 0823 c159 a6bf ed74 c5ac 7482 733f
00000670: 00ef a8bb c1b2 78bf 7e25 7717 623a 6dbf
00000680: a92e 5f9a ed9a 75bf b978 cd82 0abf 7b3f
00000690: 91d7 5704 268d 66bf 7e5e fbb0 62d9 7cbf
000006a0: cd1a 92a1 8bcf 7dbf 253d 249b 9475 783f
000006b0: 1278 d9a6 439e 943f 9975 891e 1880 4b3f
000006c0: be43 9a7e 3dbb 653f b62e eba1 bb02 963f
000006d0: 4080 8b85 16dd 71bf 1480 4c5f 91ae 61bf
000006e0: 64df e187 cd9a 843f dc73 dfe2 f138 8f3f
000006f0: 25bd e9e7 c8dc 733f 7ee3 6672 89a3 233f
00000700: 7bd3 be00 c905 873f c58a 3131 b042 8a3f
00000710: b3c8 fc87 a8dc 7ebf 1202 a933 e557 97bf
00000720: 6c22 37c3 f6ed 65bf a050 a9b2 f020 4f3f
00000730: 287f 6fa5 54e6 80bf d98e 82ad 918e 74bf
00000740: ae20 5379 dc8a 893f 742d 303d dc91 51bf
00000750: 9a19 2146 1ea0 74bf b68c d10d 52ec 8fbf
00000760: 34a5 a547 31bc 823f 6e7d f992 bfae 92bf
00000770: adc6 8799 7ebf 703f 6a31 c991 024c 7fbf
00000780: 0b12 49ac e630 9dbf 5513 7929 d8c8 58bf
00000790: f026 86fb 850f 83bf c869 fd03 ddf4 81bf
000007a0: f741 869b bf6e 84bf e305 c8fd fa33 6b3f
000007b0: 722c 5b34 5610 7ebf 4b9f 329b 9ef1 4fbf
000007c0: ed7e 27ac 383c 703f ca3e 7fe7 ec11 8fbf
000007d0: 82f2 94bf 5644 83bf c7ff 703c a81b 92bf
000007e0: c576 8146 c5df 673f c51b 3fb2 b05d 66bf
000007f0: 105a 7cf2 b235 7fbf 5142 02f7 a01d 863f
-0.037102892758278355 -0.017152783014800888 -0.025849808216015693 -0.004701336003662582 -0.009337800921229758 -0.021040789991713042 0.19510643214895113 -0.016756625659930486
0.0022534254585382914 0.1778206944531084 0.16051531194885946 -0.0018077820288874404 -0.03141619251631099 0.004761209054941599 0.18499972789312347 0.13697755611189888
0.0009557839922743577 -0.005407341857203265 -0.018263432539312723 -0.009781734125747892 -0.01576107372727797 0.12969217932184046 0.11721797607287725 -0.020631357998445895
0.14457628006438752 0.0051085754368495094 -0.00018961057780165342 -0.015357720616379432 0.016915947464072767 0.1521608375623386 -0.005125220025967823 -0.024967612041016073
0.0350058756124787 0.005851692148237167 -0.048188026936695674 -0.011438032913085844 -0.014341426056555645 -0.01964849887495894 0.15068568310980693 -0.0026870847965256334
0.018056499037524702 0.004866728697606748 -0.015271706830936529 0.004263646733328311 0.14466683377586367 -0.017229722219897735 -0.03405691237963266 -0.008341640675406848
0.1390967792779889 -0.006682011742100614 0.009175859669067704 -0.00993949543538471 -0.010046716388191573 -0.05128658494744002 -0.02610669602678239 -0.025792888144908415
-0.011483620727053351 -0.01763038856124142 -0.000261009845885221 -0.00651389513510259 -0.0075235646019081595 -0.0031675965125605335 -0.011487889501227769 -0.0034068402282478555
0.011576263262816388 -0.01618391817418927 -0.25957522449991727 -0.029890118226762727 -0.004230773458143435 -0.028797934020542384 -0.00931345059524349 -0.029599532925106004
-0.013835163012359774 0.05419322240275425 0.08356061209084213 -0.020522709915564548 -0.006780434291937844 -0.010573422118621601 -0.12647790994436733 -0.04743203577971892
-0.019715872463870264 0.1582203195535252 0.001466103751369761 -0.020714939630093913 0.006120784945018341 0.04883674571813353 -0.010600750287369126 -0.04415121903318281
-0.0073918094248956855 -0.016006742269770884 -0.034795606859731015 0.00904973627038313 -0.023178545545684062 -0.03190223108770966 0.003858344944423952 0.02671775469457887
-0.019733251751755127 -0.012921953987435475 -0.03482253195271062 -0.0047971498286210265 -0.013534892990047339 0.0037014605045503825 0.017118684647142394 -0.0009552265846241256
0.012536926099248233 -0.02088368445298491 0.09708169683669127 -0.02093273328048783 0.0011356622309408619 0.10460799398672359 0.07878307348911837 -0.007825829696983273
0.00042709212192613744 0.006816172752111281 0.06232211660115259 0.06842420053333484 0.0029566173987804352 -0.014156335749901544 -0.003978560794412687 -0.004015945744388792
0.006632480171406956 0.07054028682369369 0.06016122952590433 -0.02794763396018874 0.07878011795580814 0.008581599763644419 -0.01376162823766633 -0.0027854439932774163
0.013256012056464036 0.054620435587175935 0.0017450982715303423 -0.0029732978469563685 0.01868879243835552 0.005200258573779074 -0.02993061383311688 0.009493845544993615
-0.017176500864673854 -0.0029324331490622915 0.08065903351999001 -0.007872184115925825 -0.004916680252521821 0.007349762004209626 -0.005178105297004751 0.009610288149984839
0.06915983428524484 0.006399290280610939 0.0008720043175768095 -0.00681123286758386 0.06661518823614769 -0.017064820589305533 0.0007188353147979042 -0.00130313119156084
-0.009020071232595569 -0.015855877768848437 -0.0021366510977154553 -0.009683787934803902 0.0007914907323397324 -0.0032199568830848274 0.005561381717571039 -0.006285688814706104
0.0005003801492484988 -0.00010164389456814718 -0.004555298036541399 0.014892269030361425 0.00843826381947156 -0.007426886833550306 -0.13850117935800094 -0.011006065575781054
-0.0007885075872328798 -0.003142960942958574 0.0038388766652911583 -0.0033411720514186435 0.016437556132118388 0.007607461972510618 0.04862954062853619 0.003349800222909355
0.009196023148502836 0.003554978292936209 -0.06684081769884383 -0.02631791872161821 0.0011093459458033552 0.07469336610636441 0.0038407434460124923 0.0006940775384255258
-0.0011194560618895996 0.003801739494325125 -0.011924235658087253 -0.021662552837150795 0.0027945850323872973 0.012142516880594145 0.007262516344189905 -0.005067856698135763
-0.014577539813541634 -0.008223049953395291 -0.00692296396072931 0.019393760928118887 -0.006063187670217965 -0.007102689474998133 -0.03440572454919784 -0.009175749055581538
-0.014646002956434753 0.004320100425258442 -0.00036689918190561943 0.0012608410808177969 -0.0436535220397994 0.00476308418396097 -0.006029850740158826 -0.003567878327633777
-0.005274704109932729 0.006773987825765265 -0.0027528517264227633 -0.007043252480535165 -0.007278008875011022 0.005971508495590504 0.02013498025768718 0.000839244629854785
0.002652759653593211 0.021494800336582208 -0.004361236548646785 -0.002158435754964225 0.01006088801317135 0.015245332466230659 0.004849228657448 0.00014983227556599957
0.01124150308155846 0.012822510243670657 -0.007534654927257178 -0.022796231535041463 -0.002676946600079602 0.0009499717028327477 -0.00825182084912475 -0.005018776944925662
0.012471888020073454 -0.0010723734637874934 -0.005035513169849537 -0.015587464377125531 0.009148011206621655 -0.018244737001052717 0.004088873415172206 -0.007640848195091679
-0.028506855264156566 -0.001512728782374147 -0.009306952227024351 -0.008767821010839408 -0.009976860936860439 0.003320684640357939 -0.0073397986759103796 -0.0009748482174431831
0.003963681580415585 -0.015170908751229634 -0.00940768978272755 -0.017683628739405124 0.002914319327870315 -0.0027302218531732613 -0.007619570744074725 0.010798699892150017
