layer4.w.npy (npy, 880 bytes, 1 tensors)

array f8 [1, 100]
000000 aa 3f 29 1e 10 cd 73 bf df f2 a8 8f 37 be 92 bf
       -0.00483423515341023 -0.018303745406444413
000010 59 7f 5a 2e e9 7b 84 bf 68 fe 88 6a aa 5e 72 bf
       -0.010001966216179591 -0.004484811485383135
000020 ce a8 02 56 dc 25 a9 3f 6f be 3a fc 42 ff 95 bf
       0.04911697912150857 -0.02148155846106053
000030 34 12 2d 3e dc 61 c3 3f 40 d6 91 58 6b 8e a3 bf
       0.15142396007480985 -0.038195948182800255
000040 4e ce da b8 98 fd 9c bf 65 c3 91 ef 74 e8 d8 3f
       -0.028311144144664895 0.38918803592155476
000050 5d 51 53 49 d7 e2 c3 bf 29 ff ad 61 b2 5b 93 bf
       -0.15536013679833163 -0.018904483043569762
000060 e3 5c ca c4 46 02 9d bf 16 ac 1a e1 1e a7 ec 3f
       -0.02832899643052834 0.8954004665914705
000070 29 74 9e a6 3b f8 cb 3f 16 e4 fb ca 0f d1 c2 3f
       0.21851297031108288 0.1470050564892353
000080 96 61 2c 66 09 e6 79 bf 3f 43 52 10 e8 cd db 3f
       -0.006322895732204256 0.43444253534203264
000090 07 99 0f e3 71 79 e5 3f a5 4a 6a b7 e3 88 9d bf
       0.6710748133453145 -0.028842504567885858
0000a0 5f 89 25 77 e6 80 38 bf ad fc b3 e1 1b b2 8b bf
       -0.0003738939914425167 -0.01352330954114075
0000b0 54 7c 36 1b a3 28 d9 3f a9 59 d5 96 e7 4e a1 bf
       0.39310529382232073 -0.033805119669227786
0000c0 9d c6 1a 63 c1 f6 78 3f 81 13 f4 1c f8 e3 86 3f
       0.006094699305025178 0.011177004226291977
0000d0 c7 ee 13 4e f2 04 e1 3f 1e eb 53 21 3c a9 57 bf
       0.5318538212736365 -0.0014441573342184942
0000e0 18 33 8d 9e 28 87 d2 3f d0 4a 89 a2 5c 6c c2 3f
       0.28949943049956195 0.14393194137900034
0000f0 c9 90 09 09 7b ce c2 3f 95 c4 d7 8a c9 9f d3 3f
       0.146926288044716 0.30662764128562375
000100 b1 f9 03 bc 4a 56 a0 bf 30 66 0a f9 e0 0e 9e bf
       -0.031908355189432476 -0.029353633117898237
000110 44 bc 06 d5 e9 46 cf 3f 6a 5b 64 68 01 d6 e3 3f
       0.24435160543132117 0.6198737181574476
000120 68 49 70 35 d6 a8 6a bf 97 dc bc 7a 03 c5 c1 3f
       -0.003254335762457195 0.1388248776727081
000130 cf 19 8c 02 fd 2f c0 3f e5 63 07 fe 38 f6 d8 3f
       0.12646448730829582 0.3900282364607491
000140 bb be 46 84 f9 a7 8b 3f 10 f3 43 03 46 98 81 bf
       0.013503980015996722 -0.008591219877865736
000150 f3 cf 75 25 02 fb c9 3f 08 44 34 68 99 c0 75 bf
       0.20297266797172106 -0.005310630079535812
000160 8b 74 e7 4d 91 c0 94 bf a0 ba 44 0e 4e 5a cc 3f
       -0.020265837077989828 0.2215058870001103
000170 77 ac c2 52 67 25 e2 3f c9 7b d1 55 da 84 80 bf
       0.5670658699431347 -0.008065896743742489
000180 b4 d1 04 b2 a6 c9 90 bf 94 1d 85 0e 90 ce ae bf
       -0.016394238105208195 -0.06016969849820977
000190 39 fe 03 95 ed bc b3 bf cc 1f 84 17 37 fb 9b 3f
       -0.07710156333995934 0.027325497446355304
0001a0 20 65 bb 07 ae 66 e6 3f ce 39 b4 c9 3f 72 b5 bf
       0.7000341559425216 -0.08377455400861963
0001b0 6f f6 07 26 6c 07 e6 3f 14 d2 03 67 61 33 d9 3f
       0.6884060614390374 0.39376101551104736
0001c0 e9 eb 86 93 31 9f ce 3f 25 54 af 89 a2 9e 8b bf
       0.23923320487469305 -0.013486165835198414
0001d0 a1 97 fa bd f5 f4 97 bf b4 20 23 ea 1f f6 c3 3f
       -0.023395385475530998 0.1559486287353643
0001e0 d6 16 4b b5 f9 1f b2 bf d3 74 03 5f 59 ed 69 3f
       -0.0708004062281263 0.0031649346857266307
0001f0 82 18 2b 06 c0 b7 80 3f 6f 39 7c c3 23 a4 85 bf
       0.008162975490801697 -0.010566977885471755
000200 39 2f d0 11 3b 38 90 bf 6e 78 28 21 84 b4 8f 3f
       -0.01583950325225134 0.015481025945572404
000210 92 a0 4e 97 e5 04 dc 3f 09 10 82 c8 31 c8 76 bf
       0.4377988793953672 -0.005562014070282125
000220 25 ba 03 b4 42 09 e3 3f b1 ee dd 1d cb 3f df 3f
       0.5948804393681867 0.4882686416310476
000230 f3 2d eb b9 4b 94 91 3f 1e a1 ee b1 e3 24 a1 bf
       0.017167266104292932 -0.03348456904433504
000240 97 23 80 ee 72 f6 89 3f 08 9b 93 0c 68 0c b5 3f
       0.012677095321139293 0.08222055728002087
000250 c9 a8 3d 4b ce 00 d0 3f 9a 88 ca 77 0a 0c b8 3f
       0.2500491843008033 0.09393372940624758
000260 b6 84 97 7f dc 42 6e bf ed 5a 3b 72 3e 50 a0 bf
       -0.003693991337727266 -0.031862212604826336
000270 91 f3 12 fd e9 09 c4 3f 06 81 b7 23 f2 9b e4 3f
       0.15655255181436847 0.6440363595575327
000280 e7 6d 67 00 c2 5c d1 3f 70 8a 45 c6 73 fe da 3f
       0.2712864879556193 0.4217805324789543
000290 e0 e3 79 d7 c8 9c 4e 3f 20 d9 50 62 0f c3 7a 3f
       0.0009342175171261867 0.006533680051737073
0002a0 49 6d 2a 0d ba 51 a8 3f 9c 8e 6f 7b 77 12 28 3f
       0.04749852572168806 0.00018365582010836524
0002b0 2b 67 ea 6b 84 b2 db 3f 9a e1 06 0c d1 d7 5d 3f
       0.43277082956921004 0.0018214742159284648
0002c0 f4 48 20 39 73 38 8e 3f c8 58 2d 98 a3 a0 60 bf
       0.014756107502794859 -0.0020297236637062156
0002d0 69 ce 56 c0 3c 94 c4 3f e1 5e 8a df 90 23 cb 3f
       0.16077384368473993 0.21202288546623207
0002e0 6b e9 a3 b2 5e d5 6e bf 00 77 80 75 a0 f0 91 bf
       -0.003763852078120402 -0.017519480869046866
0002f0 fe 20 59 75 ff 90 8a bf f1 aa 5a fa 1f 7c e4 3f
       -0.012971874016458159 0.6401519670228862
000300 48 63 66 74 12 f4 cd 3f 89 3a 9f e3 71 b0 5d 3f
       0.2340109890326636 0.001812087268706771
000310 45 e6 8f 46 5e 5b 6e bf 2d 7c de f4 cf 44 b6 bf
       -0.0037056771584474146 -0.08698749283074454
