layer3.w.npy (npy, 80080 bytes, 1 tensors)

array f8 [100, 100]
000000 89 43 79 49 f5 1a 81 bf 52 cf c0 68 63 d4 86 3f
       -0.008352199845065094 0.011147286066353655
000010 b9 c3 bc bc 60 fc 62 3f 40 66 c7 18 71 50 7d bf
       0.002317608776046556 -0.007156793388696736
000020 5b 5e 6c 05 2e 43 90 bf 1c 67 6a d5 57 2c 54 3f
       -0.015881270485890258 0.0012312753439460205
000030 0f ee d7 77 fb d4 78 bf e7 96 44 c8 e5 77 77 3f
       -0.006062490746895146 0.005729577624412597
000040 ce ca 64 fb fc 7d 7b bf 29 61 3e ab 45 0d 76 3f
       -0.0067119485959660895 0.005383751053067245
000050 74 3d ee 2d 39 55 79 3f 7c 65 ae 9b 0c c4 88 3f
       0.006184790951820108 0.012092684269918712
000060 70 c8 53 ea 76 d2 82 3f 04 a9 5d 9c 2e e1 6d 3f
       0.009190491701222409 0.003647414242483939
000070 64 70 c6 64 5b 5b 84 bf 72 1e 7f 66 a6 56 7b 3f
       -0.009939874661363209 0.00667443275592171
000080 34 a2 cd d1 ed 69 5f bf b9 ab 87 cf 4e 62 81 bf
       -0.001917345281265648 -0.008488288601219073
000090 2f 2d 41 69 fe 56 8f 3f 17 5c 73 96 84 f6 6b bf
       0.015302646243205402 -0.00341344734225003
0000a0 19 87 d5 79 32 ff 6f bf 0c 4c 5c f9 a7 0d 86 bf
       -0.0039058671815589527 -0.010768234536532993
0000b0 e2 fd 6c 6d f0 3d 80 bf 81 d1 db 66 b6 0e 6f 3f
       -0.007930639590653269 0.0037911951575272944
0000c0 db 09 db 2d 88 cd 6a 3f d9 ea c3 54 ff 5d 82 bf
       0.003271833395815477 -0.008968348287898763
0000d0 ca a9 a3 9c 4d 86 77 bf 59 d6 17 6e be c3 8a bf
       -0.005743315860153373 -0.01306866429784319
0000e0 8f a0 55 f4 94 6e 98 bf c4 dc 7c 72 e3 fb 88 3f
       -0.02385933629321407 0.012199189120663319
0000f0 6a cc ea e3 5c 5f 68 3f ea d5 fa 1b 51 ec 99 3f
       0.002975160051698779 0.02531553967738446
000100 73 52 15 b2 40 1c 87 3f 79 29 08 dd 0c fc 9a 3f
       0.011284356531782813 0.026352120390620713
000110 ff 16 e3 dd cd 4d 51 3f 38 2f 73 4e 21 1c 63 3f
       0.0010561476151890734 0.002332749416018045
000120 ab 69 76 2d 50 a0 6e 3f 7e f0 e2 62 c5 fb 70 bf
       0.0037385526627080243 -0.004146357574594471
000130 07 ff ea 1f b3 de 7e bf 95 dc 39 bf c3 43 82 3f
       -0.007536601739672972 0.008918313287024563
000140 6f 83 11 c9 5b dc 8d bf 65 5a f7 ce ae c7 6e 3f
       -0.014580456803914036 0.0037573255756158546
000150 0f 8e 13 13 5c 39 92 3f 14 ce e7 25 85 6f 81 3f
       0.01779693476136229 0.008513488978656482
000160 89 16 2d ff 41 49 61 bf db 3e 38 a8 d6 0d 91 bf
       -0.0021101273536341986 -0.016654352204624395
000170 22 23 91 f3 cd 31 75 3f 3f 66 9a c4 1b 46 7f 3f
       0.005174450395380588 0.00763522002093847
000180 53 7d a8 11 89 d1 61 bf 39 7e 2d 5a 80 5b 92 3f
       -0.002175109589429938 0.017927175048838093
000190 53 03 e0 1c 6f 41 83 bf 0d 2d 28 12 ab 6a 75 3f
       -0.009402149265953652 0.005228679891398314
0001a0 44 e2 81 6a 86 5a 80 3f a2 f0 41 83 63 5a 82 bf
       0.007985162854525225 -0.008961465304530517
0001b0 d6 e4 27 ec 02 7c 5d bf 90 eb d7 b6 48 04 86 3f
       -0.0017995861568336677 0.010750358657778653
0001c0 04 f2 9c 5b 67 25 46 bf bb b7 bf f4 ef 19 8d 3f
       -0.0006758455922191713 0.014209627777713387
0001d0 59 80 45 84 56 07 82 bf eb ab 21 3f 93 12 94 3f
       -0.008803058539968033 0.01960210869621541
0001e0 14 51 5f d2 43 f7 8a bf b5 54 1c d1 32 b0 75 bf
       -0.013166932923845333 -0.00529498911216313
0001f0 e2 c3 54 a1 f3 9f 6b bf 11 d2 75 c2 4f 89 95 3f
       -0.003372169342263907 0.021031614536200453
000200 fa 74 8d 21 24 1f 82 bf e7 22 03 1f 1b 6a 40 bf
       -0.008848459505026874 -0.0005009300639580966
000210 55 2a 7f a2 80 d8 5a 3f 0d 36 c2 95 34 0d 5e 3f
       0.0016385322760351835 0.0018342031026209488
000220 bc c1 24 c9 03 4e 78 bf a1 ad a7 f0 ae df 79 3f
       -0.0059337756995749245 0.006316836700061585
000230 61 2d 7e 35 ea 9f 84 3f 26 72 6b 0d aa da 73 3f
       0.010070638425324576 0.004847206370609791
000240 6b 9d ec 12 03 04 99 bf d8 0d 25 a4 6c 2f 80 bf
       -0.02442936709408398 -0.007902954825687411
000250 a4 7d 70 c3 68 4c 85 bf d2 ce 0b 3e 12 b1 0b 3f
       -0.01039964529451149 5.2817696774368935e-05
000260 06 af 8b d9 73 1a 3c bf 31 25 8a 6b 44 d6 75 3f
       -0.0004288227878947868 0.005331294313358812
000270 a9 01 3c 92 ea 06 f8 3e 62 cb d7 c0 fa fc 89 bf
       2.291394879616748e-05 -0.012689551363086419
000280 5c 7e d9 d6 fc 35 62 bf cd e6 66 40 a8 80 96 3f
       -0.002223008944198841 0.021975163393767972
000290 21 b1 29 e7 0a 34 6f bf 89 d8 c4 ae 12 cd 75 bf
       -0.003808995528109219 -0.005322525958311294
0002a0 88 c3 89 cd fa 15 73 3f 6b 90 1e 2d 3e 45 82 3f
       0.004659633349192734 0.008921132804808182
0002b0 7c b3 77 71 2f d4 97 bf a1 32 cc cc 6d 6d 89 3f
       -0.023270360279571176 0.012415750324657639
0002c0 67 e0 f1 82 36 3d 69 3f d6 ea c6 bb 56 95 79 bf
       0.0030809464147374846 -0.006245936205625488
0002d0 5d 22 5c 40 aa ea 63 bf 4e c3 cc bc cf fc 76 3f
       -0.0024312329504748 0.005612193560225643
0002e0 1c e7 58 3c ed 40 92 bf 77 9d d3 b6 33 1e 80 bf
       -0.017825800712876747 -0.007870105759549812
0002f0 0f 16 0b 8b 5a ce 21 3f 59 3e 38 1b a5 a9 82 bf
       0.00013584952605165442 -0.009112634556941378
000300 78 f3 bd dc c5 9e 8d bf c8 69 29 6e 4a 5c 67 bf
       -0.014462991522799604 -0.0028516248433281023
000310 a1 61 85 73 f4 81 97 bf 54 c6 ea 31 c5 bf 91 3f
       -0.02295667605480534 0.01733310811204654
000320 94 f0 b5 dd e2 98 81 bf 94 44 17 af fb 33 91 3f
       -0.008592388526033092 0.016799862443637695
000330 b7 24 d7 3b 3c 06 66 bf 3e a8 a9 c2 bf 93 7b 3f
       -0.0026885200920544155 0.006732701362674174
000340 0a f4 39 36 84 3c 72 3f 7a 11 02 43 8d 65 80 3f
       0.004452244236401457 0.008006194693970004
000350 be a5 c4 c1 13 d5 6b 3f 00 33 26 1f a7 89 72 3f
       0.0033975015523039767 0.004525807208108246
000360 5a 96 da 35 73 d3 62 bf 36 8e 4d 01 9f e7 63 3f
       -0.0022980928614113995 0.0024297814911038674
000370 af b5 4a 6d 75 03 85 3f 36 b3 81 76 80 4d 80 bf
       0.010260503194639307 -0.00796032296804015
000380 5c cf b1 44 e0 41 6f 3f a1 65 d6 8e 55 85 84 3f
       0.0038155918351154127 0.010019939824632841
000390 df 2d 29 8f 64 8c 75 bf 3b 2e 52 12 ee c9 5a bf
       -0.0052608421415913645 -0.0016350579183236475
0003a0 9d af 3f b0 6b 31 74 bf 62 ed 44 fb c7 d3 51 3f
       -0.004929943712323051 0.0010880902237449743
0003b0 f7 b4 85 68 ce 63 61 bf 0a 27 66 91 a9 6e 87 bf
       -0.0021227866565626213 -0.011441540479399066
0003c0 09 86 66 b6 9f 0b 75 bf 38 4f 51 64 5c c1 52 bf
       -0.005138038517914286 -0.0011447336448968237
0003d0 f5 4f da ef 31 02 31 3f 31 3e 23 7c de a2 6f 3f
       0.00025953025019842475 0.003861841717572444
0003e0 c2 70 28 a2 ee 21 33 3f 17 37 ab d5 20 55 8e bf
       0.0002919395066400926 -0.014810806770948965
0003f0 7a fc dc d1 01 1c 85 3f 90 88 74 17 05 51 2e 3f
       0.010307325570123139 0.0002312964167937065
000400 8d eb 00 0d cb 8f 97 3f 7d f0 4d 81 c3 72 8c bf
       0.02300946490161553 -0.013890769370611839
000410 23 de fc f5 d3 e8 67 3f 3d 01 2f cb 45 e6 95 3f
       0.002918638216126161 0.021386232878058953
000420 18 28 12 9c 94 44 5f 3f e8 fe 00 4d 1d f3 4b bf
       0.0019084407106526643 -0.0008529561109824309
000430 87 30 d3 c7 17 bb 55 bf 7a 49 ed fe ec e2 5f bf
       -0.001326344702920175 -0.0019461931621732307
000440 2c f4 2c 65 88 b6 86 3f 03 3d b4 3e 2c 44 94 bf
       0.011090341174730588 -0.019791308715011457
000450 e6 93 fb f4 c4 82 86 bf 68 f5 1f a1 d2 ae 3c 3f
       -0.01099161026599833 0.0004376663429182721
000460 a3 01 0a d7 95 1c 53 bf 2d a0 8c af f2 d4 8f bf
       -0.0011664832383361044 -0.015542884809818325
000470 36 56 87 b1 e3 b7 78 bf 58 8b 16 1a 93 c1 74 bf
       -0.006034745624182094 -0.005067419640371572
000480 a6 ac 67 88 fd 7e 80 bf df d5 a2 67 62 c6 88 bf
       -0.008054714894532754 -0.012097138202402156
000490 5f c1 3f 06 1f 46 74 bf 06 9f 20 24 f0 33 90 bf
       -0.004949685277083254 -0.01582312794212639
0004a0 c2 4a d9 9d f3 48 61 bf 85 40 c2 41 a5 40 85 3f
       -0.0021099813591630443 0.010377207822131371
0004b0 ee 95 7f 93 23 c6 62 bf 0f 72 fa 4d 48 ce 82 3f
       -0.0022917456480964138 0.00918251502962966
0004c0 89 18 50 32 6c 83 8a 3f 01 4e 94 ec 47 a3 82 bf
       0.012945981297900271 -0.0091004962037351
0004d0 cc b0 13 89 fc a0 74 bf da 51 ab 59 64 3c 84 3f
       -0.0050363411585118804 0.009880813585746152
0004e0 50 ed e9 e5 7e a6 64 bf 7a 32 30 72 73 d6 70 3f
       -0.0025207975843934208 0.004110766373753289
0004f0 30 47 ff 83 6b 8e 8e bf db 2a ee 8d cf 16 84 bf
       -0.014920082059606793 -0.009809133070822032
000500 17 f6 13 df e6 e9 58 bf 8a b7 fe 10 c5 30 5f 3f
       -0.0015206102946757666 0.0019037174679214807
000510 f4 68 af e5 12 c3 51 bf 6c 0e f1 89 20 79 76 bf
       -0.0010841068785710202 -0.0054866095588895596
000520 51 8f a6 2e 5d 0a 80 bf 7d 97 c0 90 4c fa 8b 3f
       -0.0078322677480355 0.013661001365175224
000530 9d 7e ee e7 da 35 83 3f c8 1f 00 b6 03 af 6e 3f
       0.009380064204207722 0.0037455627898488088
000540 00 a9 3f ff eb e8 7b 3f 90 ba e8 3a 1d 3f 8f bf
       0.006813928473983433 -0.015257099495184862
000550 40 2b 9e 5d 2c 08 6a bf e3 f1 03 2b 96 0b 46 3f
       -0.003177725459811681 0.0006727679483727291
000560 66 25 e7 e2 f9 30 45 bf 3e 48 fa fe c0 fb 90 bf
       -0.0006467075489179741 -0.01658536487827455
000570 a9 05 63 8e 24 f9 9b bf ed b6 ad 46 73 a3 40 bf
       -0.027317591848946474 -0.0005077660438083921
000580 2b d4 32 63 75 58 3b bf 70 f5 26 e8 9c 58 83 3f
       -0.00041725984483359746 0.009446359476778382
000590 53 ea ac bc 8d ac 5f 3f f1 71 32 ab f4 c3 90 3f
       0.0019332298422357799 0.016372511815108074
0005a0 a8 13 44 db ef b9 8b 3f eb 41 78 18 bf 70 84 bf
       0.013538240317311281 -0.009980671819932637
0005b0 9f 5b 92 82 bf 34 65 bf 8f cb 7c 73 23 de 7b bf
       -0.002588628809984297 -0.006803644638966668
0005c0 9e 0f 68 c4 7a c8 78 bf 21 b7 5b 09 af 51 78 bf
       -0.00605056720678823 -0.005937274681611788
0005d0 af a1 c9 ec 0a 6b 84 bf e8 df 27 a6 39 24 5d 3f
       -0.00996979270094375 0.001778656289955544
0005e0 ae 9b 44 24 c3 8f 87 bf e7 63 62 e6 3d 69 8d bf
       -0.011504673523246325 -0.014360889046928406
0005f0 63 b2 15 46 2c a0 80 3f 85 dd 7e 7a f1 8c 83 3f
       0.00811800564653104 0.00954617171360784
000600 04 23 f4 c1 f3 df 95 bf 19 4e d2 31 91 38 98 bf
       -0.021362122261993313 -0.02365328661524133
000610 c0 97 6d 42 a9 e5 89 3f 50 04 ee df 05 f0 a0 3f
       0.012645075168347009 0.033081229767966236
000620 aa 26 6c f6 69 b0 84 3f 70 83 4f e5 04 93 88 3f
       0.010102107842175318 0.01199916672516263
000630 37 5d fe f9 10 b5 04 bf ad 03 ba 87 46 19 5b bf
       -3.9496021826563475e-05 -0.0016539753695783241
000640 6d 8d 89 ac 12 e4 75 3f 8d e8 79 2c 7c cc 69 bf
       0.005344460435114368 -0.0031492638843789223
000650 7a bb 50 67 ff f6 76 3f c1 07 58 9e 91 7a 8b 3f
       0.0056066490842984155 0.013417375225802776
000660 eb 5d 67 c4 4a ff 78 3f d2 a0 db e0 51 85 81 bf
       0.006102840480216791 -0.008555068659419272
000670 88 cf 37 5f e2 c1 79 3f 2b 6b 16 8e 50 38 47 bf
       0.006288418069278275 -0.0007086175284486176
000680 5b a4 7c 84 fd af 4a bf a3 d6 f8 71 6b d5 82 3f
       -0.0008144367102193116 0.009196128287935429
000690 39 90 32 aa 38 a2 83 3f a9 0e 5f d6 6e 59 61 3f
       0.00958675641442862 0.002117840270303113
0006a0 a2 a6 ed 0a c7 4e 81 3f 7c 64 e6 67 bc 99 44 bf
       0.008451037426954248 -0.0006286783171162292
0006b0 9d 2b f5 54 bd 2a 75 bf d2 27 9a ec 81 c4 89 3f
       -0.005167712762452673 0.012581839592957698
0006c0 34 88 41 1d 9d bf 67 3f cd 51 4a ba 06 3b 81 3f
       0.0028989857328705296 0.008413364944581137
0006d0 09 82 14 c9 4e 7c 33 3f 61 10 0d 30 29 6c 7e bf
       0.00029732631181114737 -0.007427369012308644
0006e0 e9 0c 73 ae 58 c6 90 bf 6b 4d c1 25 c9 8b 72 bf
       -0.016381631515071247 -0.004527841312739293
0006f0 0f e2 83 a4 72 65 32 bf 3c c1 36 87 5a 37 70 3f
       -0.00028070496456636477 0.003959039331150212
000700 92 35 6e be 39 5b 85 bf f5 f2 b2 f8 1d e4 5c bf
       -0.010427905200937091 -0.0017633717241515832
000710 38 40 5a 33 06 f2 62 bf 72 34 be e7 e9 9d 5a bf
       -0.0023126717667949735 -0.0016245636206549089
000720 95 b8 38 15 07 db 8c 3f d6 f8 22 e3 82 e6 73 bf
       0.01408963712227899 -0.004858504560784923
000730 2c d9 00 16 b4 eb 8d 3f f8 4f 9b 42 64 42 8b bf
       0.014609724923599098 -0.0133102257563351
000740 14 f9 5b ae 6e 2b 7a 3f 9e 08 c2 18 51 5c 98 3f
       0.006389076564799607 0.02378966058359621
000750 0c 59 e6 df 08 d2 7a bf b3 ad 77 48 92 b2 8b bf
       -0.006547960916938555 -0.01352419170048944
000760 bd a3 22 ab 62 c0 80 bf 4b 1f 6c 04 fe c6 51 3f
       -0.008179446075091574 0.0010850411069344864
000770 d1 7a 98 8b 8d 09 86 bf c0 82 92 b9 52 47 7a 3f
       -0.010760408232326853 0.006415675300701806
000780 17 cc ce b4 21 59 74 bf 3c a7 f2 08 68 3e 84 bf
       -0.004967815079839808 -0.00988465573603358
000790 b4 58 a9 32 00 8b 7c 3f d3 19 26 45 98 2b 41 3f
       0.006968498967202464 0.0005239957338723462
0007a0 d7 04 29 ce f7 a9 62 bf 05 2b 1a 10 70 63 78 bf
       -0.002278312678101284 -0.005954206224155771
0007b0 72 88 93 19 d6 bc 6f bf ff 59 b6 d6 52 6e 82 bf
       -0.003874223865396203 -0.008999488046169011
0007c0 2d a3 78 5b ef d3 6a 3f 63 39 9a da a5 57 83 3f
       0.0032748866031123897 0.009444518789021477
0007d0 ad b4 26 1e a1 2e 8b 3f e0 8c 84 94 71 2a 6e 3f
       0.01327253220810073 0.003682348095155427
0007e0 52 81 09 13 ea 4a 67 bf 46 ec 44 99 39 e0 65 3f
       -0.002843339134685299 0.002670395371891429
0007f0 c2 03 62 2a a9 d9 5f 3f a0 59 79 06 d6 a7 67 bf
       0.0019439842231181313 -0.00288764764608658
