layer1.w.npy (npy, 453680 bytes, 1 tensors)

array f8 [100, 567]
-0.01515146119345385 -0.018799247661619497 0.0011583580684500945 -0.008555150348885791 -0.0076911729679122265 -0.008535326631616312 -0.018675347100016167 -0.008065208896954484
-0.0194957967926993 -0.004867586214197328 -0.019158169976030835 -0.011117510859854846 0.002867309204809567 0.0003120972356039156 0.0016771860137961784 -0.014161996270216673
-0.004925184443242626 -0.010761264168368909 0.0009762026345151963 -0.02266791382715286 -0.026960449197490605 0.0027845863191192505 -0.012936150103714085 -0.005225679022038278
-0.014874066244527978 -0.022945626546651762 0.0007046640308287413 -0.018371237195125904 -0.0023305692634645048 -0.016413390231488564 -0.03531271456879252 0.003444808011519109
-0.004958643638930017 -0.003554711453635378 2.577608917002025e-06 -0.007884598750010706 -0.01829234742640427 -0.00637921446177896 -0.016493398772645308 -0.01732220631245405
-0.01021156131452757 -0.021623317531799083 -0.008970580729291012 0.0033633031510864712 0.004130381728646535 -0.02227357831720141 -0.02395025686091687 -0.0012956002770352932
-0.01782437072291897 -0.01105602545163424 -0.02108921901527671 -0.01238599677398405 -0.0057173741755777545 -0.00890100677825957 -0.01550942709321497 -0.005849570774772597
-0.009281462273707238 -0.034797518793390776 -0.0006733475165547134 -0.009112335556445745 -0.0018838470244855361 -0.00812845743815025 -0.008357048720853622 -0.01786705042992001
-0.028159971590117617 -0.013760550021689874 -0.03135775012624298 -0.012268239371655838 -0.018893638095367673 -0.027122332992719385 -0.0162053141020152 -0.00806693958924318
-0.015444729054045252 -0.02033530282982627 -0.006586112354922696 -0.01814184593589015 -0.028339658381554222 0.006975371724214368 0.0013613742884470963 -0.007935052171019235
-0.02454330354191544 -0.029903262767034623 -0.023266235451482375 -0.004706625126053063 0.008080258903989855 -0.011919723404912444 -0.02601495428067551 0.00268539758938768
-0.0012560930564213448 -0.03907602933877306 -0.00903654509261738 -0.011928545429916601 -0.02905777737467058 -0.023566027334747573 -0.03555515155607035 0.016967694277952177
-0.008437669905135588 -0.025727179155573078 -0.008331126819803698 -0.008275486588059017 0.017032280325958063 -0.012942801044766533 -0.01940630038126441 -0.029750187430790904
0.01860451044330958 -0.015386579613830938 -0.01655192357468423 0.003722450444255678 -0.03349485909505784 -0.0017775005101446223 -0.009154623271197426 -0.011038788839447125
-0.019370634370551053 -0.02337214300734827 -0.0122635749878524 -0.0111815797901032 -0.006794737426587936 0.003701276882246446 0.005411575863535812 0.0011189672554237917
-0.018298576568393992 -0.02227636542055169 -0.014301389592633426 -0.010443312435555708 -0.01105753341116407 -0.030793363944432182 0.011395138366456616 -0.00805969636750298
-0.012321834004264653 -0.023061956777606175 -0.022950479875150784 -0.003166276634002583 -0.007982025064597126 -0.007145945947314283 0.004450178028318073 -0.01483289120007173
0.005200406523153629 -0.009280613951173355 -0.006169351664716164 -0.011648352700781702 -0.016195178471130785 -0.02739171532171787 -0.009335181792322662 -0.01821821543102311
-0.019932864021510087 -0.02083359575126726 -0.009274378921357098 -0.01102361323077686 -0.012351785701325772 -0.01942111813572369 -0.02463323792147771 -0.0064943452076271805
-0.015077908609772284 -0.030171514636525704 -0.010287203572466829 0.011262384003125266 -0.010374235013273468 -0.013249257228202272 -0.013210399943605757 -0.00259553702378342
-0.01247600702068719 -0.006875300478756568 -0.023890519999240148 -0.012386796951004182 -0.0003337105851460489 -0.006550190924834574 -0.018297952695449045 -0.010552977663998282
-0.022337479761129455 -0.03031636887529908 -0.02370173370233567 0.00012708418517672244 -0.013188809612756126 0.0028239519651085242 0.009853048791236899 -0.022489769449910352
-0.00988378801452158 -0.00714955646169551 -0.0049042377011907674 -0.017186931366404343 -0.027038743106257805 -0.03214184106030245 -0.016761712034649143 -0.020058527809016905
-0.009948112817210416 -0.03215524637288643 -0.028157335223132296 0.0012176519061995045 -0.03327792351701518 -0.00675278572881783 -0.016614946848508436 -0.010470817579954703
-0.025300209877582434 -0.021944130274231803 -0.027265464994562706 -0.010445902725373903 0.008875678334763108 -0.024246727317294783 -0.03272762242506121 -0.024687745969928124
-0.030978693020667705 -0.015009470979092554 -0.01328237272892619 -0.02079679155129088 -0.03593768819894341 -0.016920743232374434 -0.008425497028874102 -0.012059527587342996
-0.014554417156887704 -0.024980420009000172 -0.013469050538217977 -0.010842803082029593 0.005996174370049092 -0.01526486554256107 -0.005760074892406829 -0.030302635659451765
-0.018817811257191695 -0.0014796406800649062 0.002826422253556806 -0.005359181172405703 0.008303936085094178 -0.004610235313353928 -0.015123325739633684 -0.00017872080244037483
-0.004331008459835323 -0.016821505048060494 -0.00460989624113955 -0.010251804699434113 0.004467210427697333 0.00893967357571551 -0.01854893042014231 0.0020056110190504028
-0.0030159677016270287 0.0005016462193557225 -0.01670586706701995 -0.004189724722926953 -0.0202819963575808 -0.034423909232591074 -0.016966024128662653 -0.013192564924412259
-0.013995124037954238 -0.013368601231682816 -0.01637671402334897 -0.017179782685056835 -0.0024824123467459477 -0.03216463265319844 -0.03070929224096168 -0.01780173556171604
-0.026121984109753197 -0.025943369021126674 -0.005133614978928105 -0.009142783446629303 0.007287975148109159 -0.024748440090427287 0.0030053097082536583 -0.002510187900167774
00000000: a5fe 7fb2 ba07 8fbf cf90 9527 1c40 93bf
00000010: d0e5 5881 81fa 523f 4fc6 afd7 5c85 81bf
00000020: 894b d785 c780 7fbf 59a0 f225 f87a 81bf
00000030: dfe1 2454 a11f 93bf b626 9503 7e84 80bf
00000040: df52 89c6 b4f6 93bf da64 9bb9 08f0 73bf
00000050: 4638 fe05 339e 93bf ddb0 720c c7c4 86bf
00000060: b8c0 63e8 2e7d 673f 8012 8b6b 1f74 343f
00000070: e82d 07c5 a07a 5b3f 15fd 9cf6 f600 8dbf
00000080: 7496 c421 6e2c 74bf d886 556d 000a 86bf
00000090: e085 db31 fbfc 4f3f 0984 39f2 4136 97bf
000000a0: f8d1 5a1e 859b 9bbf e05c 8d65 b3cf 663f
000000b0: c783 0dad 447e 8abf 6819 fc87 8567 75bf
000000c0: 235a a160 4b76 8ebf dc98 6aee 0e7f 97bf
000000d0: b02d c97b 2617 473f 01b0 c2db e8cf 92bf
000000e0: c087 90d8 8e17 63bf 9cfc 0af9 abce 90bf
000000f0: d671 6914 8214 a2bf b8e0 0338 4938 6c3f
00000100: 4e04 30c4 834f 74bf d823 152e c51e 6dbf
00000110: 00f0 f07c 5f9f c53e 0ce1 2fee cc25 80bf
00000120: 7b99 daa7 3abb 92bf 34d8 cc57 1721 7abf
00000130: 9a47 5041 a5e3 90bf ba1c 6d96 e9bc 91bf
00000140: ab90 188f cce9 84bf 1139 8546 6c24 96bf
00000150: fa11 def6 2a5f 82bf 185e 4ba1 5b8d 6b3f
00000160: 71ce 1ce7 04eb 703f f5c4 bf89 e2ce 96bf
00000170: 3833 cb87 6a86 98bf 0835 6334 243a 55bf
00000180: dd8e 4e45 8d40 92bf 5779 e89d 8aa4 86bf
00000190: be0b e087 6998 95bf 5ebb 9458 d45d 89bf
000001a0: ac4d a6f1 196b 77bf 07e0 1ce8 b03a 82bf
000001b0: 6812 2911 68c3 8fbf 36c7 c532 b8f5 77bf
000001c0: 9ea4 65c7 2802 83bf 912c 66fa fad0 a1bf
000001d0: 4035 fec7 7210 46bf fd11 a4f9 7ca9 82bf
000001e0: 50e0 1757 6ddd 5ebf 3407 e916 a7a5 80bf
000001f0: bac0 9317 801d 81bf 6807 1775 bd4b 92bf
00000200: 5db4 24b4 f7d5 9cbf cb87 8bc2 7d2e 8cbf
00000210: a065 897e 1f0e a0bf a4cc 0b37 1720 89bf
00000220: b764 e396 da58 93bf 62a1 c7f4 f4c5 9bbf
00000230: 60b6 5b38 2098 90bf f283 b74d 6685 80bf
00000240: 3c2e 7671 7ca1 8fbf f2f5 6e12 c7d2 94bf
00000250: 133a c112 0afa 7abf f553 efab c693 92bf
00000260: b0df b647 1205 9dbf 8656 ed16 3592 7c3f
00000270: 78c8 f982 044e 563f d65b 88ac 4040 80bf
00000280: d67c 3138 e121 99bf ca2e 83fe f59e 9ebf
00000290: 90ea 75a1 1ad3 97bf 30d9 da0f 4147 73bf
000002a0: ec04 e3fd 618c 803f 8899 9c31 5e69 88bf
000002b0: aea7 5e07 aaa3 9abf f877 57da afff 653f
000002c0: 58a7 46a6 6f94 54bf 1e98 22f8 c501 a4bf
000002d0: 290a 228d c081 82bf 382e 1544 fe6d 88bf
000002e0: 501b 136e 52c1 9dbf 062b cc52 b121 98bf
000002f0: 7e79 46ea 4834 a2bf 7ba0 0cb0 fa5f 913f
00000300: f141 60e2 c447 81bf 3ab7 5dc4 3958 9abf
00000310: 24ce d6e9 e80f 81bf 109a 0802 bdf2 80bf
00000320: a4b9 e7fb e870 913f 83b2 a559 c181 8abf
00000330: 9441 e5c5 3edf 93bf 15ae 4248 d576 9ebf
00000340: e2fe a58f 0f0d 933f bedd e8c1 ff82 8fbf
00000350: 35b3 c1c9 fcf2 90bf 04ee 685d 8b7e 6e3f
00000360: 3878 cbf8 3c26 a1bf c008 d2a3 601f 5dbf
00000370: 00b9 74bc a8bf 82bf d549 6c28 819b 86bf
00000380: f645 7f44 e5d5 93bf e77d 6af7 ddee 97bf
00000390: 1af9 092c a51d 89bf 1ffd 203c 5ee6 86bf
000003a0: cb7d 8370 ccd4 7bbf 40c0 34e5 2352 6e3f
000003b0: 0ecb a8d5 722a 763f 8019 1cf1 4955 523f
000003c0: 6bcb b2af dcbc 92bf 66ef d193 9dcf 96bf
000003d0: 18a4 b304 0c4a 8dbf 2d21 fbaa 4d63 85bf
000003e0: a8c5 0003 55a5 86bf 36f7 4cac 4b88 9fbf
000003f0: a148 f094 5556 873f e14e 8322 9a81 80bf
00000400: b3b7 9990 303c 89bf 6afb 90b8 8d9d 97bf
00000410: c911 f7a1 5480 97bf e2eb fad2 29f0 69bf
00000420: caca dd44 e158 80bf 507e 4842 1145 7dbf
00000430: a4f1 7c91 593a 723f 141f e0f4 b460 8ebf
00000440: c8e9 157f 054d 753f e0b8 41eb b601 83bf
00000450: 441d 33ba 0845 79bf 4b90 376f 17db 87bf
00000460: d2a9 8b07 7895 90bf d4d5 f3e5 920c 9cbf
00000470: 177e 00e4 521e 83bf c6f3 debd cba7 92bf
00000480: e61c 5adc 4769 94bf b29c a3f1 6655 95bf
00000490: 4e76 4311 72fe 82bf 91c1 7a52 8c93 86bf
000004a0: 7c3d 139d e44b 89bf e68e fa2c 21e3 93bf
000004b0: f2bf 119d 7439 99bf 233d 6984 d099 7abf
000004c0: 6de8 f7a2 2ae1 8ebf 28e5 8912 48e5 9ebf
000004d0: 06cf 4917 7511 85bf 3151 bf97 bb10 873f
000004e0: 2c00 d340 163f 85bf cd6d ee33 6d22 8bbf
000004f0: 0e87 ccdd 0d0e 8bbf ac22 3f54 3c43 65bf
00000500: 43af 1b51 058d 89bf 468c 4d6b 4629 7cbf
00000510: 541e 53a8 c176 98bf 373c 74be 3f5e 89bf
00000520: 6015 ae0c bcde 35bf 9822 e07c 5fd4 7abf
00000530: d290 a4d1 b2bc 92bf eacf 89af cc9c 85bf
00000540: a74a 32e4 a2df 96bf dc59 6913 410b 9fbf
00000550: 6aac 706c 4445 98bf 40d2 9dd6 3ca8 203f
00000560: 74fe ad0f bc02 8bbf dc5d bdaa 4122 673f
00000570: e812 98d2 d52d 843f 28b6 20e1 8e07 97bf
00000580: 2e84 4392 f33d 84bf 3834 f172 da48 7dbf
00000590: 1463 9d48 7716 74bf 3999 8c70 7399 91bf
000005a0: 4e1d 7755 0bb0 9bbf 7adc 5f38 e574 a0bf
000005b0: 5c1e 0e74 fb29 91bf 5154 c803 398a 94bf
000005c0: 3e9a a719 ad5f 84bf 3afb 2107 a776 a0bf
000005d0: 3015 b4c7 46d5 9cbf 40cc 5cc7 33f3 533f
000005e0: ae65 5ed2 cd09 a1bf c870 cb1d cfa8 7bbf
000005f0: cc42 5b35 8203 91bf 38da 8b58 b971 85bf
00000600: e64c 0658 4ce8 99bf fecb 77a7 8578 96bf
00000610: faf6 d861 7aeb 9bbf 2e53 a954 a964 85bf
00000620: c2c5 6b61 692d 823f b484 7353 22d4 98bf
00000630: 7fa2 fbc7 acc1 a0bf 7110 3696 be47 99bf
00000640: 041c 96e5 e0b8 9fbf c03a e217 49bd 8ebf
00000650: 0446 dfe3 c933 8bbf df4f 4c0e c14b 95bf
00000660: d440 04b7 6c66 a2bf 566e 3adb ab53 91bf
00000670: 5050 8811 6341 81bf 1127 be64 aab2 88bf
00000680: 1c01 9ccd b4ce 8dbf ea7e ea9b 7794 99bf
00000690: 6efc 8e5c a995 8bbf 1204 1365 c034 86bf
000006a0: 9ca9 20cd 718f 783f 61dd 4392 2f43 8fbf
000006b0: 8cfd 9054 e097 77bf b84e 8f74 a707 9fbf
000006c0: 364e baef f944 93bf 285a 2a15 103e 58bf
000006d0: 384c 99e4 6f27 673f 4db1 e63d 82f3 75bf
000006e0: 47f5 4e6f a701 813f 0d0f 5d9e 2ee2 72bf
000006f0: 72f8 aa6b faf8 8ebf 803a d100 e06c 27bf
00000700: d45c 193b 64bd 71bf 0a24 3418 a839 91bf
00000710: ba94 7f99 d3e1 72bf 49bb 45ef e5fe 84bf
00000720: 4e9b 0fab 354c 723f 1f2b 28ad f64e 823f
00000730: 8b04 1fa6 7dfe 92bf 1cbb 8737 126e 603f
00000740: e0f1 9d54 f1b4 68bf 0012 9b0d 1d70 403f
00000750: 0613 d1c2 571b 91bf c89e a0aa 3e29 71bf
00000760: a9ae 36bc cdc4 94bf 9e7a b5b8 02a0 a1bf
00000770: fe5e 1a9b 8a5f 91bf 10a6 3417 b404 8bbf
00000780: 4a2f 5fc0 79a9 8cbf beaf aa48 ff60 8bbf
00000790: e6bc 95ac 0ec5 90bf 048a 23b3 9397 91bf
000007a0: f0d1 05fb fe55 64bf acab aafa e177 a0bf
000007b0: acd5 6eb7 4172 9fbf 1ecd 3240 9e3a 92bf
000007c0: a103 d5ad b8bf 9abf 57a6 f905 e690 9abf
000007d0: 36b4 1d47 fc06 75bf 6f74 2e9f 73b9 82bf
000007e0: d89d a4ee fed9 7d3f 58f8 42b3 a757 99bf
000007f0: 3860 295d 979e 683f 0863 04de 3e90 64bf
